TL/Pretrained_model.ckpt (torch, 79247 bytes, 7 tensors)

weight f4 [64, 255]
0.019238122 -0.019514684 -0.03035992 0.047678813 0.020182095 -0.001206886 -0.055093516 -0.009524286
-0.04219712 0.054797202 -0.051421627 -0.010164894 0.04263237 0.06118214 -0.02482747 0.0604375
-0.014675841 0.55693334 0.038604714 0.049645677 -0.05037488 -0.11668565 -0.030118242 0.013589948
0.080186754 0.048504077 -0.21824509 -0.018820707 0.038787708 -0.056385245 0.0038417876 0.04999063
0.0011864081 0.027944386 -0.033634115 -0.06249255 -0.03578207 -0.03429266 -0.04181987 -0.030980073
-0.034462772 0.061811768 0.22071639 -0.028014489 -0.023683783 0.21063703 0.17809305 -0.008865859
-0.020553157 0.13755369 0.14595634 -0.02003415 0.024786722 0.22107233 -0.062115215 -0.060419574
0.15182117 0.010738872 -0.055808447 -0.022507846 -0.04434356 -0.031779885 0.6321793 0.04119207
0.08120937 0.29121467 0.01426816 -0.023830615 0.015124276 0.32809296 0.10171965 0.15828905
0.032174297 0.051559612 0.02626998 0.2443109 -0.09002199 0.010510753 0.21108148 -0.098963104
-0.072594844 0.00063751487 0.014444344 -0.13010255 0.30039766 0.40699476 0.021448277 -0.07453298
-0.027117942 0.08647446 -0.025053605 -0.033662662 0.09808435 -0.16827272 -0.018754406 0.058185928
-0.11254335 0.11819847 -0.2688456 -0.07851539 -0.0060737873 0.072444715 0.06375292 0.4204847
0.21368033 0.12127126 0.109265655 -0.095689066 0.060866363 0.042176507 0.1025923 -0.0719893
0.00091451406 0.06432789 -0.13718432 0.008170851 0.026688285 0.029473353 -0.0018177032 -0.1953715
0.009014652 -0.05246417 -0.21493796 -0.02065108 -0.030897552 0.022157665 0.0005064979 0.08248965
-0.034521665 -0.017748766 -0.23622102 -0.08380816 0.030260123 -0.33044985 -0.08549435 0.2812263
0.06562808 0.0024464875 0.025420176 -0.048322566 0.12649915 -0.05078914 -0.034206342 0.040638983
0.4462429 -0.15849862 0.10085702 0.010492526 -0.16921434 -0.29434547 0.2084622 0.10461324
-0.037080653 -0.08692953 0.019035961 -0.23920521 -0.2619587 -0.030492075 -0.19503833 -0.24165514
0.35498366 0.057913058 -0.78400946 0.20491838 -0.3392558 -0.014065586 -0.04550546 0.105478816
0.07939786 0.25056565 0.5572965 0.09471306 0.18896177 0.40524384 0.49416137 0.5903711
-0.13468179 0.22527997 1.0630343 0.4891814 0.62679213 0.11961182 0.30019286 0.54157126
-0.0068279402 0.26262105 -0.03754428 0.17243962 0.33958438 0.44674036 2.0299518 1.267096
1.1592501 0.5091827 0.7234907 0.49178424 1.2025698 1.1104981 0.87891906 1.4573563
0.3728348 0.2006653 0.85345787 0.560956 0.5263362 0.41400862 0.39281756 0.75402826
0.52820116 0.5974201 0.4167116 0.21244359 0.23174846 0.11913709 0.4637991 1.2698257
0.4601108 0.33297315 1.1199504 -0.075732864 0.40224513 -0.009641227 0.05011318 0.08113388
0.23851 0.47832972 0.97020715 0.85132635 0.8332696 0.14489484 0.07507329 0.06271695
0.12252821 1.6762481 0.115613274 0.4989444 0.31979883 0.33496282 0.23783344 0.20270932
0.60845304 0.017285783 0.44565687 0.21727662 0.575661 0.80198014 0.5010561 0.7254049
0.4320891 1.6155933 1.2327007 0.26016966 -0.10477913 -0.09116328 -0.35715193 0.061612062
00000000: 4499 9d3c 42dd 9fbc 5eb5 f8bc dc4a 433d
00000010: ec54 a53c 6030 9eba bda9 61bd c00b 1cbc
00000020: e3d6 2cbd 0873 603d 7c9f 52bd a88a 26bc
00000030: 489f 2e3d 209a 7a3d fa62 cbbc 508d 773d
00000040: f072 70bc 2f93 0e3f fa1f 1e3d 4459 4b3d
00000050: e455 4ebd e3f8 eebd 88ba f6bc 60a8 5e3c
00000060: f438 a43d 36ac 463d a47b 5fbe e22d 9abc
00000070: dcdf 1e3d 37f4 66bd 80c6 7b3b fac2 4c3d
00000080: 4081 9b3a a0eb e43c edc3 09bd 30f8 7fbd
00000090: 3890 12bd 7676 0cbd 504b 2bbd ecc9 fdbc
000000a0: d628 0dbd 562e 7d3d 7a03 623e a47e e5bc
000000b0: 7e04 c2bc 3cb1 573e 065e 363e 1c42 11bc
000000c0: 185f a8bc e0da 0c3e 9475 153e a81e a4bc
000000d0: 860d cb3c c960 623e 866c 7ebd 847a 77bd
000000e0: 0277 1b3e 18f2 2f3c 6697 64bd 6062 b8bc
000000f0: 98a1 35bd a02b 02bd 81d6 213f 04b9 283d
00000100: 1951 a63d 171a 953e 00c5 693c 6c38 c3bc
00000110: d0cb 773c cdfb a73e 6452 d03d 8616 223e
00000120: 32c9 033d 2c30 533d 2434 d73c a32c 7a3e
00000130: 735d b8bd 4b35 2c3c be25 583e 2bad cabd
00000140: 9bac 94bd e61e 273a f8a7 6c3c 9a39 05be
00000150: b9cd 993e 9e61 d03e 4cb4 af3c bfa4 98bd
00000160: 7226 debc 8619 b13d 383d cdbc dce1 09bd
00000170: 73e0 c83d af4f 2cbe d7a2 99bc 5e54 6e3d
00000180: 217d e6bd 0a12 f23d 21a6 89be adcc a0bd
00000190: 9f06 c7bb e55d 943d e490 823d c549 d73e
000001a0: 04cf 5a3e 115d f83d acc6 df3d a1f8 c3bd
000001b0: 024f 793d 46c1 2c3d e91b d23d 206f 93bd
000001c0: 00bc 6f3a 57be 833d 0c7a 0cbe 08df 053c
000001d0: 64a1 da3c 1a72 f13c 0040 eeba 770f 48be
000001e0: 31b2 133c abe4 56bd b218 5cbe 742c a9bc
000001f0: dd1c fdbc fe83 b53c 80c6 043a 55f0 a83d
00000200: 9766 0dbd dc65 91bc ece3 71be 9da3 abbd
00000210: 14e4 f73c b930 a9be a917 afbd e5fc 8f3e
00000220: 0468 863d 4055 203b f93d d03c e2ed 45bd
00000230: fe88 013e 4608 50bd f31b 0cbd 1075 263d
00000240: f379 e43e 764d 22be 208e ce3d d8e8 2b3c
00000250: 8646 2dbe 73b4 96be 1d77 553e 773f d63d
00000260: e2e1 17bd 1c08 b2bd 4ef1 9b3c 36f2 74be
00000270: 731f 86be 84ca f9bc 21b8 47be 7274 77be
00000280: 6bc0 b53e 3e36 6d3d d8b4 48bf 20d6 513e
00000290: f0b2 adbe 5873 66bc ef63 3abd 4705 d83d
000002a0: 589b a23d 244a 803e fcaa 0e3f ecf8 c13d
000002b0: 327f 413e 1f7c cf3e b802 fd3e 8f22 173f
000002c0: 06ea 09be cbaf 663e 8211 883f fc75 fa3e
000002d0: 7375 203f 0bf7 f43d e1b2 993e 6aa4 0a3f
000002e0: eabc dfbb 4476 863e 08c8 19bd 0394 303e
000002f0: 01de ad3e 27bb e43e bbea 0140 3430 a23f
00000300: 4f62 943f cc59 023f b036 393f 25cb fb3e
00000310: cfed 993f cd24 8e3f d700 613f a78a ba3f
00000320: 34e4 be3e 347b 4d3e 377c 5a3f d09a 0f3f
00000330: f8bd 063f f0f8 d33e 621f c93e ff07 413f
00000340: 3138 073f 86f0 183f 395b d53e d08a 593e
00000350: 784f 6d3e 26fe f33d 1377 ed3e a689 a23f
00000360: a593 eb3e 757b aa3e 895a 8f3f d519 9bbd
00000370: 13f3 cd3e 3df6 1dbc 7a43 4d3d 8529 a63d
00000380: f73b 743e a2e7 f43e 7f5f 783f 86f0 593f
00000390: 2851 553f 505f 143e 06c0 993d bf71 803d
000003a0: 12f0 fa3d 4c8f d63f a7c6 ec3d a475 ff3e
000003b0: acbc a33e 3f80 ab3e 9c8a 733e 0893 4f3e
000003c0: 94c3 1b3f ea9a 8d3c 232d e43e c37d 5e3e
000003d0: 855e 133f 924e 4d3f 3645 003f 23b4 393f
000003e0: c83a dd3e c3cb ce3f 23c9 9d3f f534 853e
000003f0: 7196 d6bd d0b3 babd 9edc b6be ee5c 7c3d

bias f4 [64]
-0.09665796 -0.53483695 -0.52477163 -0.6312473 0.22484508 0.22480945 0.17314398 -0.6273021
-0.33559263 0.16095631 -0.1625099 -0.077514306 -0.3049832 0.26331368 -0.97150874 0.58102506
0.14739665 -0.65215063 -0.49395233 -0.07363682 -0.29783586 0.09910853 -0.4145627 0.65273
-1.2824159 -0.008716495 0.2144133 0.18808681 -0.17299892 -0.40284905 -0.029136242 -0.6913411
-0.015644697 -0.52831143 -0.37838256 -0.08488228 0.27536175 -0.7293591 -0.38433784 -0.25982338
-0.5334594 -0.06714585 -0.25360554 -0.29471987 0.3228402 -0.11646527 0.39110112 0.050514493
-0.096220076 0.16285096 -0.42896232 0.012643966 -0.38277978 -0.0988493 -0.48139423 -0.31373298
-0.21693844 0.003852007 -0.35670713 -0.14741394 -0.29992715 -0.19696033 -0.027295254 0.14152892
00000000: 9cf4 c5bd 13eb 08bf 6f57 06bf 6c99 21bf
00000010: ca3d 663e 7334 663e a84c 313e df96 20bf
00000020: ccd2 abbe bbd1 243e ff68 26be d2bf 9ebd
00000030: c226 9cbe 0dd1 863e ccb4 78bf 0fbe 143f
00000040: 26ef 163e 58f3 26bf 52e7 fcbe e7ce 96bd
00000050: f17d 98be 6af9 ca3d 9041 d4be 5019 273f
00000060: 3426 a4bf a1cf 0ebc 298f 5b3e d499 403e
00000070: a126 31be 3b42 cebe 21af eebc bbfb 30bf
00000080: 4f29 80bc 6b3f 07bf 5cbb c1be c3d6 adbd
00000090: 37fc 8c3e 47b7 3abf eec7 c4be 9207 85be
000000a0: cc90 08bf c383 89bd 96d8 81be 86e5 96be
000000b0: 504b a53e 5885 eebd 683e c83e 49e8 4e3d
000000c0: 080f c5bd 67c2 263e f3a0 dbbe a328 4f3c
000000d0: b6fb c3be 8071 cabd 4e79 f6be 9ca1 a0be
000000e0: 1c25 5ebe f471 7c3b 51a2 b6be aef3 16be
000000f0: 0d90 99be f8af 49be 4c9a dfbc f5ec 103e

weight f4 [32, 64]
0.35570523 -0.07998547 -0.37424254 -0.14974026 0.25530118 0.23412204 -0.1346437 0.05152695
-0.22351865 -0.31198573 0.06541712 0.09989621 0.10350721 -0.18769713 -0.11438255 0.4415997
-0.0293208 0.055043317 -0.36619377 -0.13298479 0.14956456 0.093042426 0.23915945 -0.21739495
0.071966656 0.49484506 -0.12476041 -0.3606989 0.6535966 -0.2527746 0.50782835 -0.031239292
-0.05022174 -0.25967887 -0.33473995 0.042126056 -0.0038429205 -0.45979917 -0.050908826 0.06521539
-0.02053265 -0.49724892 -0.03182534 0.45830542 -0.3549737 0.25356886 0.15880278 -0.23451157
-0.07128435 0.11557471 0.15791984 0.115334734 -0.06826994 -0.05209971 -0.38208318 0.479947
0.46555376 0.67860264 -0.12572098 -0.09530807 -0.102859095 0.027987255 -0.25387332 -0.15239444
0.009272641 0.08811973 -0.5811893 -0.18277524 0.2839952 0.4275128 -0.33154503 0.11712726
-0.21803644 0.04395763 0.5053866 -0.024416124 0.052681603 -0.0210935 0.08229111 -0.54177
-0.060991645 0.270377 -0.066141166 0.3288921 -0.02427133 -0.07917354 0.29178488 -0.1797872
-0.0770671 0.309592 -0.49785 0.15909496 -0.072611175 -0.68650156 0.43035054 0.14298831
-0.3296403 -0.20995826 -0.25831324 -0.33778104 0.030900005 -0.3430789 0.5115153 -0.24391328
-0.1163486 0.57160765 -0.1180941 0.23459147 0.63489157 0.22434874 -0.16020831 0.07204036
-0.012949739 -0.23983671 -0.7913028 0.05841932 0.4938363 -0.3432835 0.43171108 0.39371487
-0.26577944 -0.040855046 -0.3617803 -0.11174671 0.0025783523 0.25184512 -0.039991193 0.035799235
0.10280057 -0.003777421 0.29875097 -0.5633934 0.23088361 -0.15852533 -0.045542825 0.58989394
0.15310383 -0.0400154 -0.21717119 0.3615863 -0.07318541 0.10166627 -0.038763773 -0.085328184
-0.15372705 -0.35862583 0.15385975 -0.12060493 -0.032507375 -0.17729838 0.20564847 0.466356
-0.0037671686 -0.6617466 -0.14749923 0.11687617 0.2700301 -0.06708161 -0.16775134 0.24526654
0.40087128 0.25206164 0.53851086 0.11445913 0.1427133 -0.29495502 -0.4924343 0.7051777
-0.6240298 -0.57070434 -0.34329528 -0.3725771 0.104106374 -0.10322208 0.25171098 -0.40567663
0.25891596 0.26700434 0.4765293 -0.010056957 -1.0777481 -0.33261618 -0.57467806 -0.39960068
-0.593163 0.09326545 0.42513284 -0.1734516 0.09641389 -0.28674662 -0.20728604 -0.13909037
0.31758666 -0.17156586 0.30437043 -0.3344886 -0.022774862 0.12336065 0.1748296 -0.21462487
-0.55545145 0.23307146 -0.03035216 -0.26380032 -0.24609794 0.46055943 -0.92381185 0.2690986
-0.15094516 0.119148955 -0.17426766 -0.36793798 -0.50764793 0.20556037 -0.029794652 0.13720563
-0.17330915 0.18642293 0.6287834 -0.096900314 0.37071118 -0.72421116 0.29468504 -0.08250268
0.0016056206 0.0021489423 -0.45148867 0.1126926 0.40976375 -0.12603223 0.3201462 0.24930605
-0.31701636 0.13106343 -0.16493328 -0.012541412 -0.092835754 0.28215328 -0.17557055 -0.22941245
-0.05045508 -0.04228033 0.42814606 0.18219146 0.14755635 0.8336537 -0.058141988 0.20377253
-1.5482551 0.011779241 -0.81568956 -0.08799428 -0.2116937 -0.11053338 0.1438022 0.29788837
00000000: ff1e b63e 6ccf a3bd b89c bfbe 8355 19be
00000010: d6b6 823e b0bd 6f3e 0ae0 09be ec0d 533d
00000020: 13e2 64be 98bc 9fbe 69f9 853d 6296 cc3d
00000030: 97fb d33d ad33 40be 6641 eabd 5b19 e23e
00000040: 2d32 f0bc 1a75 613d c07d bbbe 2a2d 08be
00000050: 7427 193e 078d be3d 37e6 743e c89c 5ebe
00000060: 4163 933d 555c fd3e 6382 ffbd 87ad b8be
00000070: 1b52 273f ac6b 81be 0a01 023f 8be9 ffbc
00000080: 50b5 4dbd a1f4 84be 0963 abbe 5f8c 2c3d
00000090: 82d9 7bbb cc6a ebbe c685 50bd a58f 853d
000000a0: 1734 a8bc 6997 febe 4a5b 02bd 02a7 ea3e
000000b0: 1dbf b5be c7d3 813e 329d 223e cd23 70be
000000c0: 87fd 91bd 6fb2 ec3d bdb5 213e 9e34 ec3d
000000d0: 1cd1 8bbd 8166 55bd 68a0 c3be 9dbb f53e
000000e0: 105d ee3e e7b8 2d3f 00bd 00be e130 c3bd
000000f0: caa7 d2bd 8745 e53c affb 81be 4a0d 1cbe
00000100: 46ec 173c 1e78 b43d d2c8 14bf 6f29 3bbe
00000110: d267 913e f5e2 da3e 45c0 a9be 6be0 ef3d
00000120: f244 5fbe ea0c 343d 0461 013f 5304 c8bc
00000130: aac8 573d 47cc acbc 3e88 a83d 70b1 0abf
00000140: 60d2 79bd db6e 8a3e 0575 87bd 8c64 a83e
00000150: abd4 c6bc bd25 a2bd d464 953e 231a 38be
00000160: 5bd5 9dbd d882 9e3e 32e6 febe cae9 223e
00000170: 2bb5 94bd 91be 2fbf e856 dc3e 876b 123e
00000180: 9dc6 a8be 4cff 56be a241 84be a3f1 acbe
00000190: 0222 fd3c 0aa8 afbe abf2 023f 67c4 79be
000001a0: 2d48 eebd e154 123f 52db f1bd bf38 703e
000001b0: 4188 223f adbb 653e a60d 24be e589 933d
000001c0: 242b 54bc c197 75be d292 4abf 1949 6f3d
000001d0: 1dd8 fc3e dbc2 afbe 3c09 dd3e ff94 c93e
000001e0: 3e14 88be 9f57 27bd 443b b9be 76db e4bd
000001f0: 93f9 283b d8f1 803e cecd 23bd 38a2 123d
00000200: 1b89 d23d 9c8e 77bb e3f5 983e 8d3a 10bf
00000210: c16c 6c3e 7754 22be 1d8b 3abd 4a03 173f
00000220: 40c7 1c3e 30e7 23bd 2062 5ebe d721 b93e
00000230: 3be2 95bd 6836 d03d c3c6 1ebd 8bc0 aebd
00000240: a06a 1dbe ce9d b7be 698d 1d3e b8ff f6bd
00000250: 7426 05bd b58d 35be 8395 523e 37c6 ee3e
00000260: 9ae2 76bb 3a68 29bf 0a0a 17be c65c ef3d
00000270: 6341 8a3e 1562 89bd 02c7 2bbe 2727 7b3e
00000280: 003f cd3e 390e 813e d9db 093f 8c69 ea3d
00000290: 6f23 123e 5804 97be 5920 fcbe 8786 343f
000002a0: 6bc0 1fbf ae19 12bf 66c4 afbe 6dc2 bebe
000002b0: b935 d53d 1966 d3bd 43e0 803e d9b4 cfbe
000002c0: a290 843e cbb4 883e a6fb f33e efc5 24bc
000002d0: a6f3 89bf ab4c aabe 1a1e 13bf 7698 ccbe
000002e0: 88d9 17bf f501 bf3d 03ab d93e 4c9d 31be
000002f0: a574 c53d 74d0 92be cb42 54be b56d 0ebe
00000300: b89a a23e f6ae 2fbe 71d6 9b3e 1742 abbe
00000310: 5992 babc 82a4 fc3d 8806 333e 9fc6 5bbe
00000320: 1132 0ebf 49aa 6e3e 18a5 f8bc d610 87be
00000330: 1901 7cbe 72ce eb3e ef7e 6cbf 4bc7 893e
00000340: 5e91 1abe 5e04 f43d 3973 32be 5e62 bcbe
00000350: 37f5 01bf 6b7e 523e ea13 f4bc a27f 0c3e
00000360: f477 31be a7e5 3e3e f3f7 203f ac73 c6bd
00000370: dbcd bd3e e765 39bf f5e0 963e 2af7 a8bd
00000380: b073 d23a 45d5 0c3b 8629 e7be 61cb e63d
00000390: 8ecc d13e 980e 01be 34ea a33e 164a 7f3e
000003a0: f84f a2be 7e35 063e 45e4 28be 7f7a 4dbc
000003b0: ac20 bebd 6576 903e c4c8 33be 19eb 6abe
000003c0: fca9 4ebd 242e 2dbd f635 db3e 6690 3a3e
000003d0: 0319 173e 546a 553f 4b26 6ebd bfa9 503e
000003e0: 392d c6bf b8fd 403c 08d1 50bf 5836 b4bd
000003f0: 3cc6 58be 535f e2bd e240 133e d384 983e

bias f4 [32]
0.7232683 -0.2270929 0.4352046 0.015108291 0.28104508 -0.55890685 -0.33969575 0.76992387
0.21714011 -0.017452693 -0.050698698 -0.5974428 -0.42785588 -0.50865537 0.011512747 0.64305985
-0.038200494 0.082423806 -0.6568878 0.36180696 0.44320196 -0.36239985 -0.6329638 0.040116977
0.6355422 0.39601183 -0.35743943 0.5173723 -0.8281804 -0.0747092 -0.7128357 -0.16681245
00000000: 1c28 393f 0b8b 68be 23d3 de3e c488 773c
00000010: 24e5 8f3e 8514 0fbf 9aec adbe bb19 453f
00000020: fa59 5e3e f3f8 8ebc 70a9 4fbd 03f2 18bf
00000030: ed0f dbbe 3d37 02bf f69f 3c3c 929f 243f
00000040: 1f78 1cbd d0cd a83d cd29 28bf c33e b93e
00000050: 5eeb e23e 798c b9be ea09 22bf b351 243d
00000060: e5b2 223f 10c2 ca3e 4d02 b7be 8372 043f
00000070: a103 54bf 2301 99bd 677c 36bf e2d0 2abe

weight f4 [16, 32]
0.27618968 -0.21536168 0.30098853 -0.5266938 -0.010594725 0.86737597 -0.32547617 0.34316972
-0.11873989 0.17911012 -2.1377766 -0.44737995 0.6974676 0.076598346 0.45268938 -0.18441465
0.41665715 -0.020204779 -0.78744155 0.23668468 0.33293077 -0.071425185 -0.38517714 -0.5885376
0.1539654 0.47401875 -1.1095318 0.65825135 -0.40294036 0.4364035 -0.81297207 -0.079151444
0.48879004 -0.44221586 -0.44799784 -0.0772576 -0.56953466 -0.07063511 -2.241846 0.7907821
0.3531418 -0.32127282 -1.1328495 -0.40348873 0.58347297 0.22568765 -1.1184678 0.76336694
0.8515845 1.2202678 -0.7755431 -0.48057386 0.050363943 -0.7224229 -1.3866234 -0.508011
0.2233807 0.031763777 -1.0674714 0.60855955 -0.5241757 0.3911463 -0.7313124 -0.3593244
-0.40161583 0.29580384 0.0034067663 -0.27258164 0.010602359 0.18609549 -0.27186787 -0.038267966
0.15658842 -0.14816722 -0.022836395 -0.12884502 0.46894053 0.285582 -0.015540361 -0.6397608
-0.15646277 -0.025515016 0.799282 -0.10572101 -0.54152775 0.25907692 0.36136213 0.37159622
0.05065152 -0.039807875 -0.07723517 -0.14459258 0.027335288 -0.08556503 0.5984132 0.05988073
-0.5261088 0.1730585 -0.056135297 -0.34353715 -0.12140026 0.46162096 1.9596491 0.068317264
-1.264067 -0.20149086 -0.672825 -0.024727477 0.48813185 0.18485421 -0.8483454 0.45817983
-0.17435686 -1.0113237 0.20086922 0.31383964 -0.5796963 0.17580715 -0.26832017 -0.18770437
-0.4458477 -0.25967106 -0.14443523 0.2329173 -0.30874696 0.17851973 0.1219758 -0.2874543
0.10575917 0.007849032 -0.010414396 0.23176849 0.09178695 -0.2360881 -1.3436272 0.2549791
-0.6333983 -0.12685995 -0.23551893 -0.46843386 0.43580678 0.103729606 -0.23285726 0.19510505
0.6044394 0.082544304 -0.42672426 0.4270116 0.5208046 -0.28206977 -0.8928126 -0.35028362
-0.2595722 0.24173903 -0.4222749 0.53797966 -0.25275654 0.2646927 -0.15418082 -0.48566487
-0.01460348 -0.021135008 -0.14702085 -0.2066862 0.094725765 -0.08334764 -0.9419827 -0.07216993
0.14152627 0.33606428 0.009037608 0.32605436 -1.6801388 -0.1924706 0.3595652 -0.059516743
0.40751576 -0.043717228 0.47646996 -0.011417552 -0.0244957 0.04760864 0.14424747 0.43248338
0.28002217 -0.034703154 0.014062129 -0.2781083 0.08651499 0.117883466 0.5742719 0.08783109
-0.019647663 -0.15376328 0.06611375 0.010529499 0.07213149 0.0131802065 0.124712296 0.011781292
0.008610438 0.22496068 0.14538573 -0.004300355 -0.19881421 0.03012362 0.01043785 -0.2767124
0.009103093 -0.31226626 0.2235211 0.1269752 -0.09386924 0.021447165 0.15677103 -0.034210622
0.17030533 -0.16995525 -0.0062547717 0.018540163 -0.0030050965 -0.04522228 0.07062398 -0.022559019
-0.08622077 -0.100324936 -0.009145882 -0.03790327 0.389056 0.39914018 0.07478336 -0.14908697
-0.22918819 0.08834326 0.025905287 -0.06468526 -0.9881591 -0.30662465 0.19000082 0.44448265
-0.06796255 1.2401001 -0.57705075 0.086248 -0.043866333 0.36330378 0.12892434 -0.38660616
-0.12927872 0.041937895 -0.002586086 0.17802729 -0.026737098 0.13838513 -0.47198033 -0.27895787
00000000: bc68 8d3e c687 5cbe 2b1b 9a3e 68d5 06bf
00000010: 7f95 2dbc 5a0c 5e3f d0a4 a6be f1b3 af3e
00000020: e62d f3bd a568 373e 55d1 08c0 fc0e e5be
00000030: 3d8d 323f 98df 9c3d e7c6 e73e 32d7 3cbe
00000040: 1654 d53e 7e84 a5bc c595 49bf 785d 723e
00000050: e775 aa3e 5e47 92bd f035 c5be 66aa 16bf
00000060: 1ba9 1d3e 96b2 f23e 2305 8ebf 2983 283f
00000070: 334e cebe 4870 df3e f01e 50bf 271a a2bd
00000080: b042 fa3e 1e6a e2be f95f e5be 3c39 9ebd
00000090: 06cd 11bf 24a9 90bd 687a 0fc0 b270 4a3f
000000a0: 01cf b43e df7d a4be 3601 91bf 1396 cebe
000000b0: 7c5e 153f aa1a 673e f429 8fbf 046c 433f
000000c0: 7101 5a3f bc31 9c3f fe89 46bf c70d f6be
000000d0: 6c4a 4e3d b5f0 38bf e07c b1bf 020d 02bf
000000e0: e9bd 643e bc1a 023d e7a2 88bf 8fca 1b3f
000000f0: 6130 06bf 5444 c83e 4a37 3bbf 5ef9 b7be
00000100: 97a0 cdbe 9a73 973e 0e44 5f3b d28f 8bbe
00000110: 84b5 2d3c d18f 3e3e 4432 8bbe dfbe 1cbd
00000120: b758 203e 26b9 17be 6413 bbbc f3ef 03be
00000130: f918 f03e ce37 923e 009d 7ebc 5dc7 23bf
00000140: c737 20be de04 d1bc bf9d 4c3f 4284 d8bd
00000150: 90a1 0abf bba5 843e 7504 b93e dc41 be3e
00000160: f877 4f3d 950d 23bd 792d 9ebd 1410 14be
00000170: 41ee df3c b83c afbd 9c31 193f 7f45 753d
00000180: 11af 06bf 3f36 313e 20ee 65bd 1ae4 afbe
00000190: b3a0 f8bd 9559 ec3e c8d5 fa3f ece9 8b3d
000001a0: f3cc a1bf 9f53 4ebe 423e 2cbf 4791 cabc
000001b0: 6bec f93e 6c4a 3d3e 2a2d 59bf 8c96 ea3e
000001c0: 9b8a 32be 0e73 81bf a9b0 4d3e 97af a03e
000001d0: fa66 14bf ca06 343e 4361 89be 9335 40be
000001e0: 2646 e4be 9bf3 84be d4e6 13be df81 6e3e
000001f0: 1514 9ebe e0cd 363e 73ce f93d 362d 93be
00000200: 4498 d83d 3a99 003c 25a1 2abc b854 6d3e
00000210: ccfa bb3d 14c1 71be fafb abbf 9f8c 823e
00000220: 6426 22bf 93e7 01be e02b 71be 90d6 efbe
00000230: 1122 df3e 3070 d43d 2272 6ebe 9ec9 473e
00000240: 8abc 1a3f fd0c a93d 9a7b dabe 44a1 da3e
00000250: 7353 053f 736b 90be 5e8f 64bf 6058 b3be
00000260: a6e6 84be 708a 773e 6a34 d8be 09b9 093f
00000270: 4e69 81be cd85 873e 94e1 1dbe 11a9 f8be
00000280: 6f43 6fbc 5323 adbc a28c 16be 8ca5 53be
00000290: 95ff c13d 2bb2 aabd c725 71bf d4cd 93bd
000002a0: 43ec 103e 9e10 ac3e 7a12 143c 99f0 a63e
000002b0: ca0e d7bf 0317 45be ee18 b83e d4c7 73bd
000002c0: e8a5 d03e d610 33bd dff3 f33e af10 3bbc
000002d0: 35ab c8bc 4701 433d 9cb5 133e 766e dd3e
000002e0: 115f 8f3e e524 0ebd d864 663c 3664 8ebe
000002f0: c52e b13d e36c f13d 7c03 133f c9e0 b33d
00000300: 23f4 a0bc 1f74 1dbe a566 873d eb83 2c3c
00000310: adb9 933d cbf1 573c 2969 ff3d 5206 413c
00000320: cb12 0d3c 185c 663e ffdf 143e fee9 8cbb
00000330: f495 4bbe cfc5 f63c 8403 2b3c 3fad 8dbe
00000340: 2425 153c 5de1 9fbe b7e2 643e c905 023e
00000350: 843e c0bd f7b1 af3c 9688 203e 7020 0cbd
00000360: 8564 2e3e c008 2ebe d4f4 ccbb 8ae1 973c
00000370: 27f1 44bb ff3a 39bd 4ea3 903d b1cd b8bc
00000380: 8494 b0bd 2977 cdbd 9cd8 15bc 7640 1bbd
00000390: 5932 c73e 1a5c cc3e 0528 993d 41aa 18be
000003a0: 4fb0 6abe 50ed b43d 5337 d43c b579 84bd
000003b0: fff7 7cbf e8fd 9cbe 938f 423e 3b93 e33e
000003c0: f32f 8bbd 9abb 9e3f 99b9 13bf cba2 b03d
000003d0: 2fad 33bd f402 ba3e be04 043e 3ef1 c5be
000003e0: a461 04be 12c7 2b3d 537b 29bb c94c 363e
000003f0: c207 dbbc d5b4 0d3e 68a7 f1be 91d3 8ebe

bias f4 [16]
0.64740044 0.9941924 0.24367987 0.28801367 0.9684094 -0.17641795 0.24137123 -0.4313902
0.019802487 0.09318722 0.903247 -0.51109874 0.46375027 0.32813668 -0.2518573 0.06796924
00000000: 09bc 253f 6583 7e3f 3787 793e 8776 933e
00000010: aee9 773f e8a6 34be 052a 773e 2ddf dcbe
00000020: d338 a23c f1d8 be3d 323b 673f 5ed7 02bf
00000030: ad70 ed3e 8801 a83e 71f3 80be 7533 8b3d

weight f4 [1, 16]
0.04320531 0.01194243 0.2960961 0.13246568 0.20384297 -0.036024034 -0.50609094 -0.3620755
-0.11914995 0.42502353 0.1277169 -0.18065277 0.199684 -0.5585356 -0.04402551 -0.3159472
00000000: 0df8 303d 2faa 433c e899 973e 15a5 073e
00000010: 36bc 503e f08d 13bd 2d8f 01bf f661 b9be
00000020: e404 f4bd af9c d93e 38c8 023e 0afd 38be
00000030: f679 4c3e 30fc 0ebf 1854 34bd d5c3 a1be
